API/Model/one.pth (torch, 23073 bytes, 33 tensors)

weight f4 [8, 1, 1]
00000000: 1277 2fbf 01b0 bd3e 4b0b c2be 2980 253f
00000010: c786 97be b704 e5be 91c2 773f 2865 3c3f
-0.6854106 0.37048343 -0.3789924 0.6464868 -0.29595014 -0.4473016 0.9678126 0.7359185

bias f4 [8]
00000000: bead 1abe 84af 1bbe a623 0bbf 5271 3ebe
00000010: 0b71 18bf 712a 27bf 0519 413f e44d 863d
-0.1510534 -0.15203673 -0.5435127 -0.18597916 -0.5954749 -0.65299135 0.754288 0.06557825

weight f4 [8]
00000000: 0d4f 8a3f d1f3 513f 5295 983f 6011 643f
00000010: 37c2 8c3f 4ef9 9c3f afa1 493f 1446 b43f
1.0805374 0.8201266 1.1920569 0.8908901 1.099677 1.2263582 0.78762335 1.4083886

bias f4 [8]
00000000: f576 f2bd ce0a 34bd 152d 233d d54d 1a3d
00000010: e1ce a4bd 320f e63d d883 8d3d 986b 7f3d
-0.118390955 -0.043955617 0.039837915 0.037671883 -0.080472715 0.11233367 0.06909913 0.06235847

running_mean f4 [8]
00000000: 3643 20be b80b 18be e693 0abf 0f72 33be
00000010: 27fd 17bf 8665 26bf 879a 413f 8ce8 8e3d
-0.15650639 -0.1484822 -0.54131925 -0.17523979 -0.59370655 -0.6499866 0.75626415 0.069779485

running_var f4 [8]
00000000: 4b5c 0539 560f 1638 5686 2438 1296 e938
00000010: 62cf c837 a3f8 6238 7a0f 8239 f1a4 1539
0.0001271825 3.577707e-05 3.9225757e-05 0.000111382586 2.3938428e-05 5.411416e-05 0.00024807063 0.00014271193

weight f4 [16, 8, 1]
00000000: c880 a4bc fb8a 3c3f 0693 11be 57d0 be3e
00000010: 0bc7 333e ade7 61be fdbc 923e fdb8 2b3f
00000020: cd73 f6be 2303 243c 291c 92bd 7a04 033f
00000030: c9f0 e1be 32d7 e23d e4ce b23e 983c f83e
00000040: 22d4 013e 4af2 4fbf 9447 c8bd 22ff 88bf
00000050: ff72 033e 0fd1 93be 1255 12bf 5187 46bf
00000060: 090e 24bc 9425 cabd 0d82 903e 9360 91be
00000070: a69d f73a 74dc ec3e 97b0 ddbe 7571 dfbe
00000080: 38e4 ba3e 263f 0cbd efde fd3d c7d1 0d3f
00000090: 47f7 0d3f f57e 0f3f 2986 68bd 32e6 803e
000000a0: bd8a d63e 43c4 16be 38b9 3b3e a98c a5be
000000b0: ce08 573e 7a3f 023f da8d 34be a020 85be
000000c0: 2dc8 043e 2d0e 523d a09c a5be ab1e 343f
000000d0: d811 4abe d792 2b3c 5608 023f bb04 2b3f
000000e0: 15ba 853d 3ad3 913e 0135 56bc a87b 1c3f
000000f0: a42f 0c3f 3700 6dbe 32c6 043f 2a67 853f
00000100: a84a f53e d42a ac3e 531d e53e a31d 17be
00000110: 019e c83e 10a1 9a3e 6905 10bd ce15 ab3e
00000120: efca f13d e651 8fbe 26b0 a33e 77e1 2cbf
00000130: da7e ab3e c3c8 b2bd 057c 23bf c824 2fbe
00000140: 3121 ee3e 2785 f33d 23d9 0f3f b784 aabd
00000150: e240 053f 00b2 933e ca38 cb3e 259d 983e
00000160: f5f4 96be 1aa4 103f 7352 6dbe c7fb a03e
00000170: 1a73 63be e19e a03e bb85 f63e e5db 473f
00000180: ab3a 473f 562f a23e f8c4 4a3f 3344 253d
00000190: 75fa 8b3f baf9 6d3f 8438 23be 3afc 7fbd
000001a0: a6c3 f23c 9365 3abe 3032 f53e 5454 21bf
000001b0: 3208 f73e d7f3 ea3e 9062 d3be c097 bb3d
000001c0: 08a5 cdbe 4e49 98bf 989c 3a3e 4724 c8be
000001d0: a467 b6be 1957 263e f2e2 06bf c7b4 12bf
000001e0: ce47 8cbe be76 213f a74d ab3e 3a22 343f
000001f0: f4fd 893d 671d 943e 1a36 b33e d67b 6a3f
-0.020080939 0.7364957 -0.14216241 0.37268326 0.17556398 -0.22061034 0.28659812 0.67079145
-0.48135224 0.0100105135 -0.071342774 0.51178706 -0.44129017 0.110762015 0.3492347 0.4848373
0.12678578 -0.8122908 -0.097792774 -1.070286 0.12836836 -0.28870437 -0.57161057 -0.77550226
-0.010013112 -0.09870449 0.2822422 -0.28393993 0.0018891587 0.46261942 -0.4329879 -0.43641248
0.36502242 -0.03423991 0.12396037 0.5539822 0.5545544 0.56053096 -0.05676857 0.25175625
0.41902724 -0.14723305 0.18332374 -0.32333878 0.20999452 0.5087811 -0.17632237 -0.26001453
0.12966986 0.05128305 -0.32346058 0.70359296 -0.1973337 0.010472021 0.5079397 0.66804093
0.06529633 0.28481466 -0.013074161 0.61126184 0.54760194 -0.23144613 0.5186492 1.0422108
0.4790852 0.33626425 0.44748935 -0.147574 0.39183047 0.30201006 -0.03516141 0.33415073
0.11806285 -0.2799217 0.31970328 -0.6753153 0.33495218 -0.087296985 -0.63861114 -0.17103875
0.46509698 0.11890631 0.561907 -0.083260946 0.5205213 0.2884674 0.39691764 0.29807392
-0.29483762 0.565004 -0.23175983 0.3144209 -0.22211877 0.31371215 0.48148903 0.7806991
0.77823895 0.3167674 0.792068 0.040348243 1.0935808 0.9295918 -0.15939528 -0.0624964
0.029634308 -0.1820281 0.47889853 -0.630193 0.4824844 0.4588916 -0.41286135 0.091598034
-0.4016497 -1.1897371 0.18223798 -0.39090177 -0.35625947 0.16244163 -0.5269004 -0.57307094
-0.27398533 0.6307181 0.33457682 0.70364726 0.06737891 0.28928682 0.35002214 0.9159521

bias f4 [16]
00000000: bdc1 3bbe 3819 213e c5ac eb3e 2585 dbbd
00000010: 8f7e cbbd ac84 9e3e 08f3 b9bd 4ff5 53bd
00000020: ac14 4e3e 73a8 b9bc f057 a7be 9052 c2be
00000030: 83f2 cf3e e7c6 6fbe a677 fabd 4793 bcbd
-0.18335624 0.15732276 0.4603025 -0.10718755 -0.099362485 0.30960596 -0.09079558 -0.051747616
0.20125073 -0.02266333 -0.32684278 -0.37953615 0.4061471 -0.23415719 -0.122298524 -0.092077784

weight f4 [16]
00000000: 83f9 953f 6993 5f3f c11d a13f 9fb2 b73f
00000010: 857b 8d3f 1f00 b23f 152c ba3f 6932 223f
00000020: 2f53 903f f249 a03f cfc3 963f 1767 a53f
00000030: 058d c03f 21c4 a83f bcde a33e c3f2 b63f
1.171677 0.87334305 1.2587205 1.4351386 1.105332 1.3906287 1.4544703 0.6335817
1.1275386 1.2522566 1.1778506 1.2922086 1.5043036 1.3184854 0.3200587 1.4292835

bias f4 [16]
00000000: b1d6 323f f9f9 d8bd c219 be3e 7a86 173f
00000010: 1657 0f3f b776 9c3e 2d98 f13e ebd9 edbd
00000020: 8188 153f 38a9 f43e aa8b fb3e 5d6c c63e
00000030: 8abf aa3e 17a8 2c3e aa17 03bf c176 2cbd
0.69858843 -0.105945535 0.37129027 0.5918957 0.5599226 0.30559322 0.47186413 -0.1161383
0.58411413 0.47785354 0.49129993 0.3875455 0.33349258 0.16860996 -0.51207983 -0.04210544

running_mean f4 [16]
00000000: a0e8 c73e f0f8 dc3e 2f8a 36bf e69d 6ebe
00000010: 99c7 373f df72 f23e 3e73 f23e 2969 683f
00000020: a331 713f 21b8 b5be 36dc 0c3f 1fe6 903e
00000030: 6a6a d43f ee1a 6cbc d41e 81bf 6dc6 833f
0.39044666 0.43158674 -0.713046 -0.23302421 0.71788937 0.47353265 0.47353548 0.9078546
0.94216365 -0.35492042 0.55023515 0.28300568 1.6594975 -0.014410717 -1.0087533 1.029493

running_var f4 [16]
00000000: f29d 2740 531d c23f 994a ac40 0c8c af3f
00000010: fd2f 673e 0ff4 7b3f 58e7 2740 c416 7f40
00000020: 1111 203e 9635 dc3f 558b 703e 635f 3c40
00000030: d8b4 873f b44d 853f 0eac 5540 2452 6f40
2.6190152 1.5165199 5.384106 1.3714614 0.225769 0.9841928 2.623495 3.9857645
0.1563151 1.7203853 0.23490651 2.943322 1.0602064 1.0414338 3.3386264 3.7393885

weight f4 [8, 1, 3]
00000000: 8955 29bd 2b5f e53e 146c 0bbf a664 323f
00000010: a9ed cabe f73b 3cbd 32e5 8dbe b96e 9abf
00000020: 2c3b 21bc f607 95be 87e8 8e3f aede 2c3e
00000030: 72ab 58be dfd7 013e 7b4c 13bf b7aa e1be
00000040: f5df 713e 6544 a5be 5e86 363f db45 55be
00000050: b0b6 38bd 1c36 8cbd 1ac4 a7bf f590 36bd
-0.04134134 0.4479917 -0.5446179 0.6968483 -0.39634445 -0.045955624 -0.27713925 -1.206504
-0.009840768 -0.29107636 1.1164712 0.1688182 -0.21159151 0.12680005 -0.57538575 -0.44075558
0.23620589 -0.32278743 0.7129878 -0.20827429 -0.0450961 -0.06846258 -1.310672 -0.044571836

bias f4 [8]
00000000: 092b 473e 33c2 9a3e 5370 0abf f365 cc3d
00000010: 0f34 00bf 6dcf e5be 364f d13e 3540 ac3e
0.1945001 0.30226287 -0.54077643 0.09980383 -0.50079435 -0.44884816 0.40880746 0.33642736

weight f4 [8]
00000000: 9d57 413f c423 a93f 5b63 0d3f b6f0 7b3f
00000010: 6013 983f b3e6 ed3f 2bba 3b3f 7bcd 723f
0.7552431 1.321404 0.5522973 0.9841417 1.1880913 1.8586029 0.73330945 0.9484479

bias f4 [8]
00000000: ffac 18bf 803f d4bd 5381 dcbe 12af 8e3d
00000010: d8d7 bb3d efcd 37be 0efa 57be 78ff 8fbe
-0.5963897 -0.10363674 -0.43067417 0.06966986 0.09172028 -0.17949651 -0.21091482 -0.28124595

running_mean f4 [8]
00000000: 71cd 9cc0 5ca2 cf40 faa7 35c1 de83 a140
00000010: 6dbb 20c1 7cd3 10c1 aea7 fc40 9301 0dc1
-4.9000783 6.4885693 -11.35351 5.047347 -10.045758 -9.051632 7.8954687 -8.812884

running_var f4 [8]
00000000: 4a40 f546 0cba 3047 b63f 5a47 2612 4947
00000010: 61b5 f646 52cf d146 a399 2847 9c76 6647
31392.145 45242.047 55871.71 51474.15 31578.69 26855.66 43161.637 58998.61

weight f4 [16, 8, 3]
00000000: 04b0 ed3e b4ee 663e 0091 eabe a228 86be
00000010: 5c3c 97bd 8a2a 01bf 04cc cabe bc90 de3d
00000020: ad09 02be 9389 073e c554 0d3e 1b95 623f
00000030: d788 be3e 9750 a83e db2a 82be 29ea 353f
00000040: 9850 a13d 3a30 9cbd 2842 9abe 27a5 d53c
00000050: 4bb0 5ebe 2dd8 5dbd f225 403e 8bbe e0be
00000060: 0f7d 1c3f d382 10bf f3d8 24be 60e6 493f
00000070: 6e2f 72be aac3 753e 4085 49bf 93f6 603e
00000080: cb57 553d 6c41 86be 1cf9 a8bc 6dff 95be
00000090: 4b0b 33be d0ab 70be 538b a9be a3f5 f7be
000000a0: ee83 bdbe b609 0ebe bd7a 3b3f b232 48be
000000b0: ad50 59bc fb43 77be 8dcd a13e 7635 e73d
000000c0: a26b a4be 9017 eabe f7f4 cfbe 0a9c 78be
000000d0: 824f 35bf fc75 4abd bb27 123f 289e 3e3d
000000e0: 3a63 b73e 4eeb 97be 9dde 4bbe 029a 1c3c
000000f0: 0258 d0be b824 53be fc87 b7bd b7cd 92be
00000100: eee0 9d3d 8f9f 37be 2ea0 e0be 3d8d 87bf
00000110: f67c 56be c07f 203f c0ea 5fbc b512 ac3d
00000120: a575 38bf 2b18 f43e e01c dabd 9a88 64bd
00000130: 0851 903f 5114 56be 97b9 d03e d4f5 2fbf
00000140: c0a4 123c 5d8d 653e 1419 f0be 9698 1dbc
00000150: ea7e 31bf 36ac 9f3e 5911 f6bc 4000 48bf
00000160: 5f68 a03e 0a66 643d 268e 77be 4287 fd3e
00000170: 4c75 9dbe 371f 793d 4e9d 0e3e 1e5c f3bd
00000180: 7f44 0ebd 52d1 413e 8723 bdbe 3a60 ae3d
00000190: e53b 8c3e 7346 11bf 8c6f 073d d266 2ebd
000001a0: 7979 073f aa12 383f 3a76 5fbf 428a 143e
000001b0: 8f46 d8be fd5d 01bd c712 afbe 049c 15bf
000001c0: 703b 9e3e 89d6 a23d bf59 753d 5ed9 433e
000001d0: 53d5 e6be 64d6 203d 176e e43e fc4e d4be
000001e0: e7de 443e f04b 213f b2cd 5cbe 9cc2 12bf
000001f0: c93c c53e 4ede 14bf 8de0 8dbe 9093 80bf
00000200: 6e2e 3bbe b5e5 403f c0e1 8a3e a2b2 8e3d
00000210: d845 cc3e d0c1 313e 028f 47bd a511 a83e
00000220: cc4b 3e3e 967d acbd c096 8ebe 304d 1b3f
00000230: 76f1 cabe 751b cabe 233d 8fbe 1490 e4bd
00000240: 70a3 583e 4ec2 c6bd f21b 413f 76f7 d0bd
00000250: 6481 e23d abcf 373f 1e7c b9be 6185 81be
00000260: d6c4 53bf d5a0 693e a8ce 863e c68e 373f
00000270: c386 dabd aaaa be3d a70a 013d 95d1 35bd
00000280: e0e0 093e e10e 183e c62c 66bd 6617 df3d
00000290: f76b ab3e 43d1 8fbe 60e4 83bd 9c37 44bf
000002a0: 9537 873e 235b 90be 08e1 ab3e 2dc4 303f
000002b0: b7f9 9cbe 5938 1b3e cf72 babe e447 ac3d
000002c0: e717 c2bd ae53 06be 34a1 f5bd 0843 4dbd
000002d0: 4373 363c 9166 483d 8a13 2b3f 5dc1 b8bd
000002e0: ae00 1c3f 486d 5d3f aebb 563f 275a 21bc
000002f0: bf45 fbbd 2391 21b9 76e3 9c3d 145a df3e
00000300: e547 91be d9b8 e43d 844b 1cbc 5635 3a3e
00000310: b4cf f43d 930e 033f af04 263a 491e ad3d
00000320: 6ab4 96be 095d 513d ec40 963c 3d17 153f
00000330: 7233 25bf 1651 e2be 2fec 65be 9e76 47bf
00000340: ab44 b6be 6393 6fbe 3b6e 773b c7f8 353c
00000350: b002 023f 8718 c4bd d59e 6ebe c9d3 08bf
00000360: c798 8e3e e142 013e 9e4e b1be 3765 edbe
00000370: e96a a4bd 3029 d4bc c409 6e3d a488 533e
00000380: 24d9 cdbe e4c5 063d a06f 15bf 71d8 873f
00000390: 7e6b 083f 8701 ecbe 505d 20bf a92e 563f
000003a0: 1b2e c8be 8588 0abe d8fb 44be d091 5bbb
000003b0: 9041 6f3e f00c ed3b 037a 8f3d c834 43bf
000003c0: 9e94 6b3f 48f2 313f ca66 a1be 957f 243f
000003d0: 5f0b 93bc eeed 76bd 25e7 92bf 3309 9cbe
000003e0: 1a28 4d3d 48e1 883f 889c 303e e215 893e
000003f0: 95d9 32bd cb78 d13d 5bc9 9abe 0034 ea3e
0.46423352 0.22551996 -0.4581375 -0.26202875 -0.073845595 -0.50455534 -0.39608777 0.1086745
-0.12699004 0.13236074 0.13801868 0.88508767 0.37213776 0.32873985 -0.2542332 0.71060425
0.078767 -0.07626386 -0.30128598 0.026079727 -0.21746938 -0.05416124 0.18764475 -0.43895373
0.61128324 -0.5644962 -0.16098385 0.7886715 -0.23650905 0.24000421 -0.7871895 0.2196906
0.05208568 -0.26221788 -0.020626597 -0.29296437 -0.17484777 -0.23503041 -0.33114108 -0.48429593
-0.37014717 -0.13870892 0.7323416 -0.19550589 -0.0132638635 -0.24147026 0.31602135 0.11289494
-0.32113367 -0.45721102 -0.4061658 -0.24278274 -0.70824444 -0.049428925 0.57091874 0.04653755
0.3581789 -0.2967171 -0.19909139 0.009558203 -0.40692145 -0.20619476 -0.08961484 -0.28672573
0.077089176 -0.1793196 -0.43872207 -1.0589978 -0.20946106 0.6269493 -0.013666809 0.084020056
-0.7205451 0.4767469 -0.10650039 -0.055794336 1.1274729 -0.20906188 0.40766594 -0.6873448
0.008950412 0.22417207 -0.46894133 -0.009618899 -0.6933428 0.31186074 -0.030037569 -0.7812538
0.3132963 0.055761375 -0.24175319 0.49517256 -0.30753553 0.060820784 0.13927194 -0.11882804
-0.03473329 0.18927506 -0.36941168 0.085144475 0.27389446 -0.5674812 0.033065364 -0.042578526
0.5291973 0.7190348 -0.87289774 0.14505866 -0.42241332 -0.031583775 -0.34194013 -0.58441186
0.30904722 0.079510756 0.05990004 0.19125888 -0.45084628 0.03926696 0.44615242 -0.4146651
0.19225655 0.63006496 -0.21562842 -0.573282 0.38522938 -0.5815171 -0.2771038 -1.0045033
-0.1827943 0.75350505 0.2712536 0.06967665 0.39897037 0.1735909 -0.048720367 0.32825962
0.18583602 -0.08422391 -0.27849388 0.60664654 -0.39637345 -0.39474073 -0.2797633 -0.11160293
0.21156096 -0.097050294 0.75433266 -0.102034494 0.110598356 0.7180125 -0.36227506 -0.25297073
-0.8272222 0.22815259 0.2632954 0.7170223 -0.10670235 0.09309895 0.0315043 -0.044389326
0.13464689 0.14849426 -0.056195043 0.10893135 0.33480808 -0.28089342 -0.064400434 -0.76647353
0.26409593 -0.28194532 0.33570123 0.6904934 -0.30659267 0.15158214 -0.36415717 0.084121495
-0.09477215 -0.13117859 -0.11993638 -0.050112754 0.011135879 0.04892594 0.6682669 -0.09021256
0.6093854 0.86494875 0.83880126 -0.009848154 -0.122691624 -0.00015408224 0.07660572 0.43623412
-0.28375164 0.111680694 -0.009539489 0.18184409 0.11953679 0.51194113 0.00063330954 0.08453042
-0.2943452 0.051114116 0.018341504 0.58238584 -0.64531624 -0.4420249 -0.22453378 -0.7791537
-0.35599265 -0.23396067 0.0037754911 0.011106676 0.5078535 -0.09574991 -0.23302777 -0.5344816
0.27850935 0.12623169 -0.34630293 -0.46366283 -0.08028204 -0.025898546 0.058114782 0.20657593
-0.40204728 0.032903567 -0.5837345 1.0612928 0.5328902 -0.46094915 -0.62642384 0.8366495
-0.39097676 -0.1352864 -0.19236696 -0.003350366 0.23364854 0.0072342083 0.07005694 -0.7625241
0.92023647 0.69510317 -0.31523734 0.64257175 -0.017949758 -0.0602855 -1.147679 -0.30475768
0.050087072 1.069375 0.17247212 0.26774508 -0.043664534 0.102281176 -0.30231747 0.45742798

bias f4 [16]
00000000: ce63 e9bd 7398 1d3e a788 3d3c 0195 debd
00000010: 388d 723d ef0f 4c3e 77fc f7bb cd2e 22bd
00000020: ba9f 473e d0c8 e0bd 1ed2 1fbe 4738 1cbe
00000030: cc7c ddbb df2d 7abe 75a8 a53c 8a59 23bc
-0.11395989 0.15390186 0.011568225 -0.10868264 0.059216708 0.19927953 -0.007567938 -0.039595414
0.19494525 -0.10975802 -0.15607497 -0.15255843 -0.0067592617 -0.24431561 0.020221928 -0.009970078

weight f4 [16]
00000000: 9994 323f 5cb6 ea3d 34ee 023f 8e14 913f
00000010: 6990 6a3f 1a73 6d3f abfe 0a3f dbe7 a93f
00000020: 0c74 0f3f 3762 753f 5959 3b3f 0c1f 523f
00000030: 0782 9f3f 2f82 813f 59d6 0a3f b29c 0a3f
0.6975799 0.114605635 0.5114472 1.1334398 0.916266 0.92753756 0.5429484 1.3273882
0.5603645 0.9585299 0.7318321 0.82078624 1.2461556 1.0117854 0.5423332 0.5414535

bias f4 [16]
00000000: 290a 6d3e af70 9a3e 9e47 0dbf 557a 8dbd
00000010: c1a8 01be 71e8 48be 67dc 00be 3d7f b03e
00000020: 8c99 88be 38c6 0d3d 9e72 61be 7131 bcbd
00000030: 0a48 28be db91 41be 909f 22bd 60c9 5b3e
0.23148407 0.30164096 -0.55187404 -0.069080986 -0.12662031 -0.1961992 -0.12584077 0.34472075
-0.26679647 0.034612864 -0.22016379 -0.09189118 -0.1643373 -0.18903296 -0.039702952 0.21463537

running_mean f4 [16]
00000000: d8a3 933d 4ab7 04bd 4d3c 8ebe 4d2c 14be
00000010: 87c1 61bd 7ba6 d83e 7ac6 333e ecd9 ca3d
00000020: 67f5 613d f3d9 e7bd 8312 db3c 7c5d d0bb
00000030: 45c8 b6bc 00f5 e6bd 667e 823e 39f4 2fbe
0.07208985 -0.03240136 -0.2778038 -0.14470024 -0.055116203 0.42314515 0.17556182 0.099048465
0.055165675 -0.113208674 0.026742226 -0.0063588005 -0.022312293 -0.11277199 0.2548706 -0.17183007

running_var f4 [16]
00000000: 9c25 3740 5e9a 2540 a2a5 9c40 865c e340
00000010: 2979 0640 fe7d 8e40 335d 0740 f301 8740
00000020: 0f51 4f40 75dd 6340 aa18 8e40 4851 9b40
00000030: 15c1 0a41 767d be40 7edf 4640 3f2d aa3f
2.8616705 2.5875468 4.895219 7.1050444 2.101145 4.45288 2.1150634 4.218988
3.2393224 3.5603917 4.4405107 4.853672 8.672139 5.952815 3.1073909 1.3295058

weight f4 [8, 16, 3]
00000000: c1c9 f53d dcdc cfbe 6b49 5f3e 55bd 7c3d
00000010: c7c9 03bf cd1e 54bc 9ae1 313e c619 843e
00000020: b93a 853c 4bd1 ab3e ffe6 6b3f e178 713d
00000030: ee40 c73e c78f f83e 62fe 10be 2256 d43d
00000040: 4557 c13e 6aa5 a0be 90a1 383e 19e7 bcbe
00000050: 1e31 753e a06d f7be 086b d4be 78b1 79be
00000060: 41d2 5c3e 7bad f53e c486 d4bc fe70 8e3e
00000070: 9380 803e e0fa 9f3e c42f 133d 24d1 c93e
00000080: 8467 8bbe 5e43 373d 016f ebbe 0308 593d
00000090: 09e1 b03e 3fda a43f 3041 56be 7729 b2bc
000000a0: b3d2 1b3f ae7e 4ebe ee3c b8be 4724 37be
000000b0: db27 123d 2dfd 7c3e 7412 12bf 12f1 0ebd
000000c0: d85a 86bf 690c 7e3d 541a bdbe ee9e a3bd
000000d0: 782b e6bd 26a7 a7be 4bef f03d 5592 2ebf
000000e0: f6c5 aabe 9b58 6a3d d1d2 76bf 4372 05be
000000f0: 0393 6f3e 90dd c7be 7bb3 80bd 49d8 063e
00000100: ad8a 28bf a772 ecbc 81c1 4bbf e129 3a3e
00000110: c952 1dbe d99c dabc ec59 c73c 54d5 a0be
00000120: 81c1 913e d68c 2ebf ebaa bfbe 0ed7 943e
00000130: 8577 09bf 8d57 f8be ebcc 5d3e 6ca2 30be
00000140: 4ce9 94bd 0191 7bbf a930 693e 75e8 febe
00000150: 8de4 8a3e a653 a8be 1b96 41be ebcf 893e
00000160: 347e 1abf 4fd8 2bbd f8ab 93be 7de2 da3e
00000170: 2dc5 fa3a d7d9 5ebe 5f7d c3bd dfc0 b0be
00000180: 777a 1abe 7384 e13e 2410 63be b8cc 503e
00000190: c7a8 9e3e 4cb7 b4be fb16 7abd 22ef bc3e
000001a0: f446 1a3e 312e 593f 0c72 ab3e fdac d13d
000001b0: e53c fc3e 4db9 c53e a52e 00bf 016a 243e
000001c0: f6f9 863e 0740 d8bd 42ef 4dbe 08e3 c53e
000001d0: 9958 a9be 691c 9f3e 552d 113d 61c3 7b3d
000001e0: 3c46 7a3e efaf d0bd a452 38bf 0f35 303e
000001f0: e88f 163e 8f2f b9bd 2979 ee3e 6f3e 763e
00000200: c5df 0fbf ca5e 59bd c890 b63e 2203 1fbe
00000210: f039 5b3f 97ff 443e 2f7a 6abe 9b1e 5d3f
00000220: be4e 143d 30f8 84be 0663 22be 33df f7bc
00000230: 3302 be3c 6ac7 88bd c068 203f 9257 a6be
00000240: 5cb6 f5be d708 07bf ac91 843e 0c47 debd
00000250: f022 59bf 1ecc 423e 88d8 c43e bfe4 b63e
00000260: e093 18be 56ff 02be 9ba3 60bc 90a6 8bbe
00000270: 8a64 953e b977 debe 850f 9bbd d440 c7be
00000280: 33a3 60be 2074 0bbe d633 d9be 9a3c ccbe
00000290: 6018 d13e e4bd 94be 8957 75be 4627 62be
000002a0: dd48 5a3b f456 a5bd ae12 9ebe b959 2fbd
000002b0: ec47 033e 7cbf 20be 65e4 a33c d22b 1abe
000002c0: 17c2 903d c07d a6be f4af 47be b9a6 f13e
000002d0: d6ee 8b3d 969a 03be 7f5a a0be c403 74be
000002e0: 598a b9bc 91b5 ccbe 9eee b73c 9cdc d33d
000002f0: 3bc1 153e ce03 efbe f863 77bf e358 1a3e
00000300: 2827 54bf 26f5 f4be 51d3 85be 28db abbc
00000310: e720 96be 77c2 c33d 0b84 54be d507 4fbe
00000320: bce5 a6be b390 6abe 147e 64bf 4925 17be
00000330: 815d 6abd da74 44bf 01fd 173c 810d e6bc
00000340: 7f77 16bf c323 bfbc 0adf 35bf 7356 b3be
00000350: 331b 06be b117 cf3d 37e0 913e c09c 1ebf
00000360: 7a31 25be d728 2bbf 9fc5 91be 8bbc aebe
00000370: 5b19 8e3e e1a9 2cbf e99c 51be 96ea 24bf
00000380: d78b 183d f783 2cbe 29b3 4abe b31e a4bd
00000390: 3e94 c7bc a96a 10bf b277 8f3c dcd8 973e
000003a0: 38ec 95be 4af6 303e fb3b dcbc 44f5 a63e
000003b0: 0887 16bd 4871 c2bc b6da 9dbe 1cdd 383e
000003c0: 79c4 9d3e bd7d 9b3d 4ef1 393d cf3e 85be
000003d0: 7927 3bbd 63ea 60be 5814 51bd eedc b63e
000003e0: 1593 9c3e d884 813e cdd9 2a3f 1b2f d63e
000003f0: 7ee1 4bbe 2013 153f 4008 413e 3e03 bd3e
0.12001372 -0.4059819 0.2180535 0.061704 -0.5147976 -0.012946797 0.17371216 0.25800914
0.016263353 0.33558115 0.9214935 0.05895317 0.38916725 0.48547193 -0.1415954 0.10367991
0.37761894 -0.313762 0.18030381 -0.36895064 0.23944518 -0.48325825 -0.41487908 -0.24384105
0.2156458 0.47983918 -0.025943168 0.2782058 0.25098094 0.3124609 0.035934225 0.39417374
-0.27227414 0.04474198 -0.45983127 0.052986156 0.34546688 1.2879103 -0.20923305 -0.021748288
0.60868376 -0.20165512 -0.35983986 -0.17884932 0.03568254 0.24705954 -0.5705941 -0.03489787
-1.0496473 0.062023554 -0.3693415 -0.07989298 -0.1123876 -0.32744712 0.117643915 -0.68192035
-0.33354157 0.057213407 -0.9641543 -0.13031869 0.23395924 -0.39036226 -0.06284233 0.13168444
-0.658366 -0.028863264 -0.7959214 0.18180038 -0.15363611 -0.026686119 0.02433487 -0.31412756
0.28467944 -0.6818365 -0.37435088 0.29070324 -0.53698 -0.48504296 0.21660201 -0.17249459
-0.0727106 -0.98268133 0.22772469 -0.49786726 0.27127495 -0.3287632 -0.18904917 0.2691644
-0.6034882 -0.041954335 -0.2884214 0.42750922 0.0019132249 -0.21762787 -0.09545397 -0.3452215
-0.15085779 0.44046363 -0.22174126 0.20390594 0.30988142 -0.35296094 -0.061057072 0.36901194
0.15066129 0.8483611 0.33485448 0.10238073 0.4926521 0.38617936 -0.50071174 0.16056062
0.2636258 -0.10559087 -0.20110801 0.38649774 -0.33075407 0.31076363 0.035443623 0.061465625
0.24440855 -0.10189807 -0.720011 0.1720774 0.14703333 -0.09042274 0.46576813 0.24047254
-0.5620082 -0.053068914 0.35657334 -0.15528539 0.8563528 0.19238125 -0.22898172 0.86374825
0.036207907 -0.25970602 -0.15858087 -0.030257797 0.023194408 -0.0667866 0.62659836 -0.32488686
-0.47990692 -0.52747864 0.2589239 -0.10853395 -0.84818935 0.19023177 0.3844645 0.35721394
-0.1490016 -0.12792715 -0.013710882 -0.27275515 0.29178268 -0.43450716 -0.075713195 -0.38916647
-0.21937256 -0.13618517 -0.4242236 -0.39889985 0.4083891 -0.29051125 -0.23959173 -0.22085294
0.003330759 -0.080732256 -0.30873626 -0.042810176 0.12820405 -0.15698045 0.020006368 -0.15055779
0.0706827 -0.32517815 -0.19500715 0.47197512 0.06832664 -0.12851939 -0.31319043 -0.23829561
-0.022648977 -0.39982274 0.022452649 0.10344812 0.14624493 -0.4668259 -0.96636915 0.1507297
-0.8287225 -0.47843283 -0.26137784 -0.020978525 -0.29321977 0.095585756 -0.20753495 -0.20217831
-0.32597148 -0.22906761 -0.8925488 -0.14760317 -0.05721808 -0.767408 0.009276629 -0.028082611
-0.58776087 -0.023332482 -0.71043456 -0.35026893 -0.13096313 0.10111941 0.28491375 -0.6195793
-0.16132155 -0.6685919 -0.28471085 -0.34128222 0.2775372 -0.67446715 -0.20470013 -0.6442045
0.037242737 -0.16847216 -0.19794907 -0.08013668 -0.02436268 -0.5641275 0.01751313 0.29657638
-0.29281783 0.17281452 -0.02688407 0.32608998 -0.03674987 -0.023735657 -0.30830926 0.18053097
0.3081396 0.07592342 0.04539614 -0.26024482 -0.04569194 -0.21964411 -0.051044792 0.3571543
0.30580965 0.25296664 0.6673859 0.41832814 -0.19910237 0.5823231 0.18850803 0.36916536

bias f4 [8]
00000000: 2990 d23d ebef 0abe 63af 38bd c594 eb3c
00000010: a07c 31bd 171b 0e3e e460 123d ce58 963d
0.102814026 -0.13568084 -0.045089137 0.028757462 -0.043331742 0.13877521 0.035736933 0.07341157

weight f4 [8]
00000000: ff7c 923f 3349 533f 8853 993f 8269 47bb
00000010: 5afd 543f 61d3 5c3f 36ea 963f 85c0 9b3f
1.1444396 0.8253357 1.1978617 -0.0030427878 0.83199084 0.8626004 1.1790226 1.2168127

bias f4 [8]
00000000: 9823 b23e 328a 243e 0a70 403e b349 d6be
00000010: bca2 2e3d c499 863e a670 27be 977f 823d
0.3479278 0.16068342 0.1879274 -0.41853103 0.042635664 0.2628919 -0.16351566 0.06371992

running_mean f4 [8]
00000000: 6c83 7d3f 913b 30c0 53e7 653f f48a cabf
00000010: 997a 25c0 b4f2 953f e645 a83f cb0f b33e
0.9902866 -2.7536356 0.898061 -1.5823655 -2.5856078 1.1714692 1.3146331 0.34972987

running_var f4 [8]
00000000: cdfc c941 a390 cd41 2e88 3a41 4e5b 0141
00000010: 6a0b fa41 e73d 8941 1091 1b41 fe4a 2c41
25.248438 25.695623 11.658247 8.084791 31.255573 17.155226 9.722916 10.768309

weight f4 [1, 8, 3]
00000000: b457 94be 1b56 dbbd e57b 05bf 643f 6c3d
00000010: 4921 8b3e ccc1 933d 033a 26bf 07e6 1d3e
00000020: f214 94be 242c 173c a4da 943d 0294 ac3d
00000030: 70aa 8d3d d3f1 063e 3cc7 1b3e ce11 20bd
00000040: 5fbb 25be 13cb f8be 1f6d 50be 986f 48bf
00000050: b0c1 b23e 1726 07bf 64b9 8c3d 82be 0cbf
-0.28973162 -0.10709783 -0.52142173 0.05767764 0.27173832 0.07214698 -0.6493227 0.1541978
-0.2892223 0.009226833 0.07268265 0.08426668 0.06917274 0.13178186 0.1521272 -0.03907948
-0.16184758 -0.48592433 -0.20354126 -0.7829528 0.34913397 -0.52792495 0.06871298 -0.5497819

weight f4 [2, 16]
00000000: 2bf4 a03e bb1b 6f3d d3a7 05be 1eb7 72bd
00000010: c4ec 323e 539e 08be 75e1 883e 5cd0 123e
00000020: fe92 023e 407f c03d aac7 a83e 6a29 91bd
00000030: 16fe 5e3e fe54 0e3e e11e 93bc e27a 863e
00000040: 33cc 2bbf 94ee 103e 63a1 a63e b0d0 393d
00000050: c5aa a1bd e543 3abe 8af2 a3be ac65 e4bd
00000060: 5c09 51be d93f 76be 1f3b 9abe 45ad 38be
00000070: f452 9abd f94b 143e 06e3 4ebe 927e 90be
0.31436285 0.058376055 -0.13052301 -0.059256665 0.17473131 -0.13341646 0.2673451 0.14337295
0.12751386 0.09399271 0.32964832 -0.07087977 0.21776614 0.1389961 -0.01795906 0.26265627
-0.6710846 0.1415351 0.32545003 0.045365036 -0.078939 -0.18189962 -0.3202098 -0.11152205
-0.20413727 -0.24047793 -0.3012323 -0.18034847 -0.07535353 0.14482106 -0.2020379 -0.28221565

bias f4 [2]
00000000: a328 ba3d ede8 91bd
0.09089782 -0.07124505
